models/deployed_model.pt (torch, 534074 bytes, 27 tensors)

weight f4 [100, 100]
1.9029461 1.4687773 0.8895114 -2.0793412 0.6699745 -1.2191839 -0.042531688 -1.5847079
-0.74278235 1.6282226 -0.3875962 -1.3861382 -0.7188278 -0.55247015 -0.7592715 0.7529558
1.621886 -0.15761249 -0.4912105 0.4341219 -0.7487028 1.0649027 0.7908437 1.6597092
1.2632238 1.2802858 0.60287625 1.3181317 -0.22874333 0.041240115 -0.24844979 0.8491646
-1.3674544 -0.8603974 -0.22058728 1.6959927 0.314913 -0.41923958 0.30191574 -0.7649523
-1.5381969 0.98325205 -0.86884296 -0.59366333 -1.2582973 2.096383 -1.2192901 -0.48184466
-0.9024574 -0.64995474 0.07705271 0.5192702 -0.48192158 1.1765485 -0.80388355 -0.72684056
-1.3857853 0.03555572 -0.06268784 0.6672172 -0.09659076 1.8216493 -1.1698136 1.3663392
1.4271646 0.84575987 2.1904888 0.516657 0.3423376 -0.1948777 -1.0414677 1.2621051
-0.170049 0.51727283 0.055917434 0.4209919 0.56785256 -0.6337367 -2.1789365 -0.7414604
0.0107329 -0.33452734 -1.3240085 -0.5780923 0.5295188 0.5180975 1.1270007 0.05100129
0.73469365 -0.47559384 -1.0364131 0.5963919 -1.7008753 -0.81746995 1.3180971 0.47752467
-2.4783456 0.4819308 0.7748276 0.028290862 0.6327858 0.57599086 1.0536485 -0.44455326
-0.1829644 0.7434001 0.399722 0.1762449 0.2616142 1.2573234 -0.0012945546 -0.29982617
-1.4389118 -0.10106279 -0.5916988 0.4711223 0.7171387 0.09001876 -0.38422638 0.5213472
-0.012527706 0.23784055 0.13088681 0.75473684 1.0813874 0.335663 0.7110068 0.40628815
1.9071392 0.99927723 -1.4185437 -1.1158015 -0.13434318 1.6150681 0.64659244 0.56883556
1.1273038 0.01833351 -1.783345 0.9139235 -0.3706732 1.020234 -0.6781131 0.62888896
-0.9605752 0.9465355 1.5990548 1.4325614 0.26612878 -0.20775904 -0.7236835 0.10300016
0.34441304 0.9555577 -0.4598957 1.5848362 -2.4492717 -0.4123487 -1.1805923 0.80223596
-1.8769126 0.22573356 0.024550267 -0.34164715 0.28326592 -0.7217511 0.17264722 -1.0803182
-1.5822384 1.3360722 1.2727994 0.051645257 -1.5276049 0.74728894 0.7658722 2.0013297
0.035372216 0.11908873 -0.7956425 -0.20499575 -0.9203561 -1.571182 -1.1218531 -0.51609546
-0.51232105 -1.4825925 -1.9026887 0.12626077 1.0101885 -0.54888433 0.69551426 0.7010463
1.7523155 -0.910088 0.95047784 -0.3328238 -1.160703 0.35360396 0.47281268 1.3368613
0.51952064 2.085757 -0.51428205 -0.92041343 0.18285914 1.055394 1.2902778 0.4541153
-0.8044937 -1.0085337 -0.48876747 -0.5848899 0.15239589 0.43528363 -0.14644721 -2.289618
-0.39304549 1.0670413 -1.758716 1.4892915 0.30557805 -0.49408603 1.0221279 1.6686293
-0.0044489917 1.6460562 0.15200678 -1.0470651 -0.5655357 0.08252885 0.3949314 1.9644638
-0.07109151 -0.89482254 -2.0232291 -1.0676038 0.01740388 0.077252895 0.19075562 0.40457878
-0.9175725 0.27275398 -0.5321738 0.45682767 -0.86104596 -0.026781 -0.3488524 1.4456391
1.2398286 -0.7060592 0.8432997 0.5066109 0.53301406 0.55846983 0.4995001 0.21968709
00000000: bd93 f33f e500 bc3f 05b7 633f ed13 05c0
00000010: 7383 2b3f 380e 9cbf b535 2ebd b5d7 cabf
00000020: fc26 3ebf 9969 d03f 0273 c6be fa6c b1bf
00000030: 1905 38bf af6e 0dbf 9e5f 42bf b6c1 403f
00000040: f699 cf3f 2b65 21be f17f fbbe 3a45 de3e
00000050: fdaa 3fbf bb4e 883f bc74 4a3f 5a71 d43f
00000060: 51b1 a13f 68e0 a33f 1956 1a3f 8ab8 a83f
00000070: b13b 6abe 65eb 283d 9f69 7ebe da62 593f
00000080: bf08 afbf 0143 5cbf a2e1 61be 4a16 d93f
00000090: 473c a13e 92a6 d6be b394 9a3e ead3 43bf
000000a0: a3e3 c4bf 68b6 7b3f 7e6c 5ebf 52fa 17bf
000000b0: e30f a1bf 242b 0640 b311 9cbf 58b4 f6be
000000c0: 7307 67bf 6f63 26bf d0cd 9d3d e4ee 043f
000000d0: 6dbe f6be 2499 963f 50cb 4dbf 3912 3abf
000000e0: 6a61 b1bf e0a2 113d 7b62 80bd bfce 2a3f
000000f0: 60d1 c5bd ce2b e93f 74bc 95bf 34e4 ae3f
00000100: 54ad b63f b883 583f f830 0c40 a243 043f
00000110: e046 af3e 058e 47be d04e 85bf a98c a13f
00000120: 5321 2ebe fe6b 043f ae09 653d 408c d73e
00000130: c95e 113f 923c 22bf b273 0bc0 59d0 3dbf
00000140: 0cd9 2f3c 2b47 abbe 1c79 a9bf dbfd 13bf
00000150: 8b8e 073f 0aa2 043f 8f41 903f bbe6 503d
00000160: e214 3c3f 0981 f3be 2fa9 84bf 24ad 183f
00000170: 48b6 d9bf b645 51bf 68b7 a83f 1d7e f43e
00000180: 379d 1ec0 a2bf f63e 1a5b 463f 3dc2 e73c
00000190: 40fe 213f 2374 133f f4dd 863f 7c9c e3be
000001a0: 055b 3bbe 784f 3e3f 5da8 cc3e 8b79 343e
000001b0: 4cf2 853e f9ef a03f 0bae a9ba d182 99be
000001c0: 432e b8bf 02fa cebd 9379 17bf f136 f13e
000001d0: 6796 373f c15b b83d 52b9 c4be 0377 053f
000001e0: 0241 4dbc 798c 733e 3107 063e 6f36 413f
000001f0: e76a 8a3f 05dc ab3e 8b04 363f 0005 d03e
00000200: 231d f43f a2d0 7f3f d792 b5bf 95d2 8ebf
00000210: 4291 09be 8dba ce3f 1587 253f 359f 113f
00000220: 7e4b 903f 2830 963c a644 e4bf e4f6 693f
00000230: e1c8 bdbe 0797 823f d298 2dbf defe 203f
00000240: 42e8 75bf 2750 723f d4ad cc3f 2c5e b73f
00000250: 0842 883e c9be 54be 5243 39bf bff1 d23d
00000260: e856 b03e 6e9f 743f 7377 ebbe eadb ca3f
00000270: dec0 1cc0 5e1f d3be a61d 97bf 565f 4d3f
00000280: ac3e f0bf b326 673e a41d c93c 60ec aebe
00000290: 3b08 913e aec4 38bf 6fca 303e de47 8abf
000002a0: ca86 cabf 6a04 ab3f 17eb a23f fa89 533d
000002b0: 8f88 c3bf 544e 3f3f 3310 443f c915 0040
000002c0: 75e2 103d cbe4 f33d 3aaf 4bbf 68ea 51be
000002d0: 759c 6bbf 7e1c c9bf e298 8fbf d51e 04bf
000002e0: 7927 03bf 97c5 bdbf 4e8b f3bf 814a 013e
000002f0: db4d 813f af83 0cbf 390d 323f c577 333f
00000300: e04b e03f 87fb 68bf 8452 733f e267 aabe
00000310: ea91 94bf 940b b53e 8114 f23e 451e ab3f
00000320: 4eff 043f 0b7d 0540 fda7 03bf 37a0 6bbf
00000330: 6d3f 3b3e 2717 873f d327 a53f cd81 e83e
00000340: 4df3 4dbf a217 81bf bb3f fabe 58bb 15bf
00000350: ab0d 1c3e 7fdd de3e 42f6 15be 1a89 12c0
00000360: 423d c9be cf94 883f 9b1d e1bf 1ba1 be3f
00000370: ba74 9c3e d8f8 fcbe 16d5 823f a595 d53f
00000380: d9c8 91bb f8b1 d23f aaa7 1b3e 3b06 86bf
00000390: f3c6 10bf e304 a93d 7334 ca3e 8d73 fb3f
000003a0: 6d98 91bd 1713 65bf 967c 01c0 3ea7 88bf
000003b0: 9592 8e3c c436 9e3d 7155 433e f324 cf3e
000003c0: 08e6 6abf 69a6 8b3e 8b3c 08bf 51e5 e93e
000003d0: 826d 5cbf d463 dbbc c89c b2be b40a b93f
000003e0: b4b2 9e3f 4cc0 34bf 7de2 573f 40b1 013f
000003f0: 9c73 083f e1f7 0e3f 7abe ff3e a7f5 603e

offsets f4 [60]
0.0 0.084745765 0.16949153 0.2542373 0.33898306 0.42372882 0.5084746 0.59322035
0.6779661 0.7627119 0.84745765 0.9322034 1.0169492 1.101695 1.1864407 1.2711865
1.3559322 1.440678 1.5254238 1.6101695 1.6949153 1.779661 1.8644068 1.9491526
2.0338984 2.1186442 2.20339 2.2881355 2.3728814 2.4576273 2.5423727 2.6271186
2.7118645 2.79661 2.8813558 2.9661016 3.0508475 3.1355932 3.2203388 3.3050847
3.3898306 3.4745762 3.5593219 3.6440678 3.7288136 3.8135593 3.898305 3.9830508
4.0677967 4.152542 4.237288 4.322034 4.40678 4.4915257 4.576271 4.661017
4.745763 4.830508 4.915254 5.0
00000000: 0000 0000 308f ad3d 308f 2d3e 642b 823e
00000010: 308f ad3e fcf2 d83e 642b 023f 4add 173f
00000020: 308f 2d3f 1641 433f fcf2 583f e2a4 6e3f
00000030: 642b 823f 5704 8d3f 4add 973f 3db6 a23f
00000040: 308f ad3f 2368 b83f 1641 c33f 091a ce3f
00000050: fcf2 d83f efcb e33f e2a4 ee3f d57d f93f
00000060: 642b 0240 de97 0740 5704 0d40 d070 1240
00000070: 4add 1740 c449 1d40 3cb6 2240 b622 2840
00000080: 308f 2d40 a9fb 3240 2268 3840 9cd4 3d40
00000090: 1641 4340 8fad 4840 081a 4e40 8286 5340
000000a0: fcf2 5840 755f 5e40 eecb 6340 6838 6940
000000b0: e2a4 6e40 5b11 7440 d47d 7940 4eea 7e40
000000c0: 642b 8240 a0e1 8440 dd97 8740 1a4e 8a40
000000d0: 5704 8d40 94ba 8f40 d070 9240 0d27 9540
000000e0: 4add 9740 8693 9a40 c349 9d40 0000 a040

widths f4 [60]
0.083333336 0.083333336 0.083333336 0.083333336 0.083333336 0.083333336 0.083333336 0.083333336
0.083333336 0.083333336 0.083333336 0.083333336 0.083333336 0.083333336 0.083333336 0.083333336
0.083333336 0.083333336 0.083333336 0.083333336 0.083333336 0.083333336 0.083333336 0.083333336
0.083333336 0.083333336 0.083333336 0.083333336 0.083333336 0.083333336 0.083333336 0.083333336
0.083333336 0.083333336 0.083333336 0.083333336 0.083333336 0.083333336 0.083333336 0.083333336
0.083333336 0.083333336 0.083333336 0.083333336 0.083333336 0.083333336 0.083333336 0.083333336
0.083333336 0.083333336 0.083333336 0.083333336 0.083333336 0.083333336 0.083333336 0.083333336
0.083333336 0.083333336 0.083333336 0.083333336
00000000: abaa aa3d abaa aa3d abaa aa3d abaa aa3d
00000010: abaa aa3d abaa aa3d abaa aa3d abaa aa3d
00000020: abaa aa3d abaa aa3d abaa aa3d abaa aa3d
00000030: abaa aa3d abaa aa3d abaa aa3d abaa aa3d
00000040: abaa aa3d abaa aa3d abaa aa3d abaa aa3d
00000050: abaa aa3d abaa aa3d abaa aa3d abaa aa3d
00000060: abaa aa3d abaa aa3d abaa aa3d abaa aa3d
00000070: abaa aa3d abaa aa3d abaa aa3d abaa aa3d
00000080: abaa aa3d abaa aa3d abaa aa3d abaa aa3d
00000090: abaa aa3d abaa aa3d abaa aa3d abaa aa3d
000000a0: abaa aa3d abaa aa3d abaa aa3d abaa aa3d
000000b0: abaa aa3d abaa aa3d abaa aa3d abaa aa3d
000000c0: abaa aa3d abaa aa3d abaa aa3d abaa aa3d
000000d0: abaa aa3d abaa aa3d abaa aa3d abaa aa3d
000000e0: abaa aa3d abaa aa3d abaa aa3d abaa aa3d

weight f4 [100, 60]
0.069023274 -0.10595419 -0.07661674 -0.07463406 0.06734991 -0.004248502 -0.117007785 0.12503594
0.03322993 0.1172616 0.015914897 0.018276751 0.0918967 -0.086738795 0.12040346 -0.08200175
0.011556164 -0.08278774 -0.07360712 0.10157014 -0.029511364 -0.025348721 0.09042233 0.11833933
-0.11429702 0.0046893265 0.04531095 0.13174973 -0.040859308 -0.029966539 -0.061556485 0.044880442
0.03956271 -0.001083799 -0.02204028 -0.086504094 -0.04317661 -0.040923014 0.03994792 0.062496327
0.06601151 -0.0905837 -0.002100251 -0.015575972 0.1363313 0.10206777 -0.08360186 -0.057756852
-0.08453406 -0.022210702 -0.103501394 0.06797603 -0.04793433 -0.054412104 0.016826352 -0.029574288
0.10738304 0.12529953 -0.10650057 0.06268395 0.0026602708 0.066917285 -0.047796376 -0.009653049
-0.0023848717 0.04371425 0.06356806 0.049723037 0.015647037 -0.101708025 -0.07323843 -0.07263163
-0.12705511 0.122126155 -0.057721835 -0.0847445 -0.0577388 0.06824381 -0.13658074 -0.21104307
-0.23091906 -0.15711768 -0.18468802 -0.21202464 -0.12807952 -0.1319535 0.02399998 0.036259674
0.0017498813 -0.05736697 -0.07842033 0.049278647 -0.026222728 -0.011127933 -0.014345318 -0.042090632
-0.070311934 0.016572975 0.037614502 -0.0986707 -0.03436012 -0.11987914 -0.123304375 0.07819176
-0.00932728 -0.08638902 0.041652475 0.034303926 0.03019344 0.033772495 -0.015451708 -0.114381485
-0.13160866 0.10720914 0.07517259 -0.10680748 0.09735441 -0.11698617 0.092354745 0.09692343
0.080098026 0.05395786 -0.07722111 -0.054676082 0.02733101 0.050282806 0.11176107 0.005671259
0.052501004 -0.09628448 -0.025877848 0.075818986 0.010420286 0.10078795 -0.10230339 -0.08507093
0.04007783 -0.00651725 -0.16016474 -0.037049074 -0.110231794 -0.09938806 -0.069817774 -0.15382965
-0.12584694 -0.12580632 0.072750665 -0.09022678 0.09566139 -0.05652597 0.017923066 0.11645098
-0.0765226 -0.13483545 0.0008217278 -0.140734 0.013625443 -0.00010911681 0.04577458 -0.05673398
-0.12167036 -0.14756177 -0.108032696 0.08911587 -0.049616437 -0.023096152 -0.046243563 -0.080833115
0.08846953 -0.053932406 -0.0850808 0.09546126 0.05663791 0.050040025 0.07643525 -0.091323666
0.034383137 -0.040069833 0.0024172836 0.05768705 -0.042320617 0.12509783 0.0006252428 0.073461466
0.011732665 -0.12288175 -0.0762517 -0.10623804 0.014980521 -0.08552884 -0.10139042 0.027333349
-0.111600384 -0.069377206 -0.082476944 0.062232357 0.11689741 0.0461928 -0.012339686 0.19764881
0.22736245 0.08875669 0.20037656 0.09672395 -0.06504659 -0.03663019 -0.11123367 0.029469727
0.0597275 -0.14125732 -0.07604439 -0.028159853 0.0748929 -0.0881614 -0.018201891 0.0370012
-0.012083367 -0.016470307 -0.0005293882 -0.009931414 -0.021311939 0.018797537 -0.011351717 -0.064882904
0.071113415 0.08272027 -0.030806256 -0.040061664 -0.14078264 -0.102203794 -0.010572743 -0.029903058
0.02764187 -0.07607224 -0.043839477 -0.005099263 0.096511655 0.06802663 -0.11979622 -0.046703704
-0.02087322 -0.0040754243 0.053113766 -0.05128815 -0.027176412 -0.12629524 -0.04529071 -0.1250422
0.04513396 -0.09814024 -0.06299953 -0.092454545 0.09694909 -0.037426442 0.11079456 -0.0633527
00000000: 135c 8d3d 83fe d8bd 3de9 9cbd bed9 98bd
00000010: c0ee 893d 0537 8bbb c7a1 efbd 6c09 003e
00000020: 1b1c 083d da26 f03d f55f 823c 20b9 953c
00000030: 5634 bc3d 1ca4 b1bd 1796 f63d 89f0 a7bd
00000040: 1156 3d3c 9e8c a9bd 54bf 96bd 0104 d03d
00000050: d1c1 f1bc 1fa8 cfbc 582f b93d e45b f23d
00000060: 8e14 eabd eca8 993b fa97 393d 67e9 063e
00000070: 175c 27bd 637c f5bc a722 7cbd 8ed4 373d
00000080: 820c 223d 430e 8eba d18d b4bc 0f29 b1bd
00000090: f5d9 30bd e49e 27bd 6ea0 233d 26fc 7f3d
000000a0: 0b31 873d f283 b9bd 5da4 09bb 5d32 7fbc
000000b0: 6f9a 0b3e e808 d13d 7437 abbd 7392 6cbd
000000c0: 3120 adbd 38f3 b5bc 8af8 d3bd 0437 8b3d
000000d0: ca56 44bd 3adf 5ebd 6bd7 893c c745 f2bc
000000e0: a4eb db3d 854e 003e f91c dabd 7160 803d
000000f0: f057 2e3b ee0b 893d 22c6 43bd d227 1ebc
00000100: 824b 1cbb b70d 333d f92f 823d 62aa 4b3d
00000110: 372e 803c 4c4c d0bd 08fe 95bd e4bf 94bd
00000120: bc1a 02be 471d fa3d bb6d 6cbd 868e adbd
00000130: 857f 6cbd 69c3 8b3d d2db 0bbe ad1b 58be
00000140: 0c76 6cbe 75e3 20be db1e 3dbe fd1c 59be
00000150: 4727 03be d11e 07be 9b9b c43c 0685 143d
00000160: 465c e53a a1f9 6abd d79a a0bd 68d8 493d
00000170: 0cd1 d6bc ef51 36bc a008 6bbc 3a67 2cbd
00000180: b4ff 8fbd 0cc4 873c aa11 1a3d dd13 cabd
00000190: 32bd 0cbd 3283 f5bd 0187 fcbd 0023 a03d
000001a0: 73d1 18bc baec b0bd c99b 2a3d 4682 0c3d
000001b0: 3c58 f73c 0755 0a3d 2929 7dbc d740 eabd
000001c0: 6cc4 06be 7790 db3d 16f4 993d e1bd dabd
000001d0: c061 c73d 7296 efbd 7c24 bd3d cb7f c63d
000001e0: 6f0a a43d eb02 5d3d 1a26 9ebd 07f4 5fbd
000001f0: 48e5 df3c 58f5 4d3d fde2 e43d f8d5 b93b
00000200: 4b0b 573d cc30 c5bd c8fd d3bc fc46 9b3d
00000210: d9b9 2a3c ea69 ce3d 7184 d1bd ab39 aebd
00000220: a728 243d a88e d5bb 3a02 24be c5c0 17bd
00000230: 35c1 e1bd f88b cbbd 9ffc 8ebd 8585 1dbe
00000240: 05de 00be 5fd3 00be 4dfe 943d d1c8 b8bd
00000250: 1eea c33d c787 67bd 65d3 923c da7d ee3d
00000260: e2b7 9cbd 4e12 0abe 3869 573a 931c 10be
00000270: 403d 5f3c a4d5 e4b8 207e 3b3d e461 68bd
00000280: 4f2e f9bd 6f1a 17be 3f40 ddbd 6282 b63d
00000290: 9b3a 4bbd 2434 bdbc e469 3dbd d58b a5bd
000002a0: 832f b53d 3ae8 5cbd d83e aebd 3181 c33d
000002b0: 27fd 673d c5f6 4c3d 168a 9c3d e707 bbbd
000002c0: 55d5 0c3d 4420 24bd 4a6b 1e3b 4249 6c3d
000002d0: 6258 2dbd a519 003e 56e7 233a f772 963d
000002e0: 5d3a 403c 6da9 fbbd da29 9cbd 5493 d9bd
000002f0: dc70 753c bf29 afbd c8a5 cfbd 30ea df3c
00000300: be8e e4bd a315 8ebd ace9 a8bd 5be7 7e3d
00000310: e967 ef3d a934 3d3d 652c 4abc 7364 4a3e
00000320: b4d1 683e 11c6 b53d 832f 4d3e 3517 c63d
00000330: 2637 85bd 8a09 16bd 7ace e3bd 7f6a f13c
00000340: d3a4 743d c2a5 10be 29bd 9bbd 7eaf e6bc
00000350: 7361 993d f78d b4bd 221c 95bc 928e 173d
00000360: 51f9 45bc bdec 86bc a4c6 0aba 5fb7 22bc
00000370: 6096 aebc 4bfd 993c 8dfc 39bc 54e1 84bd
00000380: e9a3 913d 3f69 a93d 675d fcbc b317 24bd
00000390: 5329 10be 3950 d1bd 4c39 2dbc 42f7 f4bc
000003a0: 3471 e23c c3cb 9bbd 0691 33bd b817 a7bb
000003b0: e7a7 c53d 8c51 8b3d b857 f5bd 624c 3fbd
000003c0: 51fe aabc 238b 85bb d28d 593d 8613 52bd
000003d0: 11a1 debc 8a53 01be c082 39bd 100b 00be
000003e0: 63de 383d c0fd c8bd e605 81bd cf58 bdbd
000003f0: 3f8d c63d 784c 19bd 42e8 e23d 0fbf 81bd

bias f4 [100]
-0.018674914 0.028749669 0.093178555 -0.032681145 -0.0066872872 0.02890211 -0.09104397 -0.10642011
0.014096688 0.020069156 -0.10831452 0.10604924 0.038113475 -0.08129466 0.10765529 0.017995842
-0.0032744478 0.0131688975 -0.09579603 -0.0018942931 0.10944282 -0.07344318 0.05958203 0.07149381
0.12177275 -0.10838613 0.03692977 0.04893019 -0.05258866 0.08572983 0.05723761 0.09914987
-0.07814336 0.045095168 -0.0986728 0.04366071 0.08201055 -0.11881933 0.10203113 0.048024178
-0.003909371 0.12745479 -0.008899656 -0.084641956 -0.08722424 0.08593436 -0.11256795 -0.046648253
0.11007931 0.07373876 0.12684157 0.049650528 -0.007595281 0.06674461 -0.064580925 0.08469261
-0.053254355 -0.02310374 -0.04577371 -0.080861166 -0.01152124 -0.04323269 -0.032940682 0.09174506
0.074754216 -0.057297315 0.10354463 0.09935275 -0.042504955 0.09214125 -0.050855428 0.12775472
0.0041250396 0.106505066 0.11357617 0.0695595 0.04333912 0.00959424 -0.10899597 0.011030934
0.07341045 0.1306834 0.052649003 -0.088212736 -0.012101329 -0.057566933 -0.009682176 -0.09018794
-0.0027167925 -0.022954999 0.08398595 -0.0638044 -0.086440615 -0.016289158 0.122418694 0.061860874
0.07244351 -0.118745565 -0.025697816 -0.0351207
00000000: 22fc 98bc 6d84 eb3c 66d4 be3d aadc 05bd
00000010: 0821 dbbb 1ec4 ec3c 4375 babd c9f2 d9bd
00000020: cbf5 663c 1268 a43c 01d4 ddbd 5830 d93d
00000030: e01c 1c3d d17d a6bd 607a dc3d 046c 933c
00000040: 1e98 56bb 5cc2 573c b530 c4bd ee49 f8ba
00000050: 8f23 e03d 6169 96bd 490c 743d 596b 923d
00000060: fe63 f93d 8cf9 ddbd ac43 173d 066b 483d
00000070: 3567 57bd 1f93 af3d fc71 6a3d 160f cb3d
00000080: a009 a0bd b6b5 383d f714 cabd 93d5 323d
00000090: 26f5 a73d 8d57 f3bd b2f5 d03d 00b5 443d
000000a0: 2e1a 80bb 8283 023e ddcf 11bc c358 adbd
000000b0: 9fa2 b2bd 5bfe af3d 068a e6bd 3d12 3fbd
000000c0: 4371 e13d 5904 973d c2e2 013e 5a5e 4b3d
000000d0: d6e1 f8bb 66b1 883d 0143 84bd 5273 ad3d
000000e0: 3d21 5abd 0e44 bdbc 377d 3bbd 8a9a a5bd
000000f0: 95c3 3cbc c314 31bd cfec 06bd d6e4 bb3d
00000100: bd18 993d 97b0 6abd 350f d43d 7479 cb3d
00000110: ad19 2ebd 8db4 bc3d c84d 50bd 22d2 023e
00000120: 572b 873b 541f da3d 9f9a e83d 3675 8e3d
00000130: 5c84 313d 2931 1d3c 4739 dfbd 17bb 343c
00000140: 3858 963d dfd1 053e 7ba6 573d e1a8 b4bd
00000150: a744 46bc 4ecb 6bbd fda1 1ebc 74b4 b8bd
00000160: 370c 32bb 1f0c bcbc d300 ac3d e2ab 82bd
00000170: c707 b1bd d770 85bc a7b6 fa3d d461 7d3d
00000180: 435d 943d e030 f3bd 3a84 d2bc b9da 0fbd

weight f4 [100, 100]
0.031405658 0.07128644 0.0915099 0.042389978 0.06634576 -0.025427513 -0.008064886 -0.09021599
-0.070248105 -0.07937673 0.059562482 0.045953915 -0.08099252 0.08010196 -0.094652444 -0.0028016854
-0.09075072 0.08206215 -0.04426179 -0.06473287 0.044797 -0.019570902 0.062887244 0.09390282
0.06868425 0.014326212 -0.00899976 -0.07215378 -0.056338046 -0.060174208 0.05814592 0.0028457246
-0.06527875 0.08740474 -0.029716149 0.0954805 0.09255463 0.018540895 -0.08230101 0.03063828
0.00075407303 -0.050099917 -0.057460796 -0.058293223 0.016938867 0.040066544 0.018235918 0.058226623
-0.037682015 -0.03724684 0.09513027 -0.07603138 -0.08956251 0.09465863 0.0625353 -0.017980585
0.031057095 -0.02940821 -0.012205728 0.015174141 -0.032323766 0.0062688338 -0.035654493 -0.08327023
0.04443324 -0.07403527 -0.098394416 0.018066624 0.07365113 0.03300003 -0.06788772 0.057946794
-0.030109474 -0.013770607 0.05747607 0.03554073 -0.034706034 0.061298653 -0.024866095 -0.027825063
0.06945882 -0.023842908 -0.0033962731 0.09396297 0.09657328 0.024850352 0.07582307 -0.021578489
-0.04683316 0.086619526 0.05064353 0.06891556 -0.04674654 0.049621686 0.07955229 0.008214826
0.06508264 -0.08852015 0.0361625 -0.02302084 0.10466707 0.026850037 0.0895153 -0.02647509
0.016402662 0.061928406 -0.0633725 -0.026375914 -0.08605095 -0.06746709 0.051229496 -0.038752664
0.056638736 0.017237056 0.027238559 -0.009385351 -0.10367962 -0.017582309 -0.0465385 -0.04559833
0.07207992 -0.069844194 -0.07907155 -0.026581228 -0.052283917 0.03199418 0.056348402 0.008081131
0.009410422 0.04021767 0.05102169 -0.0051436895 -0.058978893 -0.091656186 0.10669415 0.02565092
0.08244171 -0.029922927 0.019718377 -0.061157465 -0.058226842 -0.05308879 0.10580117 0.07517587
-0.052461483 -0.07744943 0.040815838 -0.016308384 -0.0033362382 0.004330441 -0.09466749 0.014890785
0.0038489506 -0.07691939 -0.089915656 0.04261777 -0.082726695 -0.037255608 0.06756347 -0.058052186
-0.038998622 -0.06656231 0.0655074 0.023129761 0.0018548813 0.028696392 0.019191084 -0.02846776
-0.009431335 -0.0694404 -0.040600546 -0.006296778 -0.019377116 0.017814223 0.039175928 0.064542405
0.09942638 -0.00061736075 0.04669746 -0.08645376 0.06429956 -0.03438913 -0.086440526 -0.068897024
-0.07526385 -0.037897564 0.05289373 -0.07878423 -0.01839744 -0.026197297 0.029807355 -0.03449602
0.056728557 -0.057852298 0.049893092 -0.10587799 -0.07468943 0.042697016 0.005431859 0.075981796
0.06605953 -0.10181515 0.060908787 -0.010737629 -0.0043092077 -0.052053206 -0.003128764 -0.07861567
-0.0020724556 0.08626774 -0.008150627 0.06321271 -0.06268557 0.053255454 -0.002055783 -0.045190126
0.08434896 0.004708239 0.017755285 -0.020211594 -0.019996546 0.096034184 -0.027501635 0.07360922
0.021920692 0.07737705 -0.08211653 -0.09865121 -0.019859288 -0.04122154 0.07816221 0.08434154
-0.02267016 -0.059782237 0.013460822 0.02437835 0.019024137 0.03085593 0.060208596 -0.002735844
0.063977644 0.011458944 0.0105209 0.080112346 0.017586105 -0.006337072 -0.0060431124 0.07251232
-0.04379184 0.06310347 0.04077466 -0.013442474 -0.00939317 0.026649533 -0.08632664 -0.046044696
00000000: 38a3 003d a0fe 913d 8b69 bb3d 1da1 2d3d
00000010: 49e0 873d 5c4d d0bc 9522 04bc 29c3 b8bd
00000020: 3dde 8fbd 4490 a2bd caf7 733d 2c3a 3c3d
00000030: 68df a5bd 7f0c a43d 24d9 c1bd 7b9c 37bb
00000040: 83db b9bd 3310 a83d da4b 35bd ab92 84bd
00000050: 0f7d 373d 2853 a0bc 07cb 803d 1f50 c03d
00000060: 54aa 8c3d 7db8 6a3c bb73 13bc 5cc5 93bd
00000070: b9c2 66bd 3b79 76bd 6b2a 6e3d 567f 3a3b
00000080: deb0 85bd 4201 b33d 486f f3bc 488b c33d
00000090: 488d bd3d 13e3 973c 6f8d a8bd 21fd fa3c
000000a0: fcac 453a 9235 4dbd 035c 6bbd e0c4 6ebd
000000b0: 61c3 8a3c d11c 243d 7e63 953c 0a7f 6e3d
000000c0: 7558 1abd 2490 18bd a9d3 c23d 57b6 9bbd
000000d0: 8d6c b7bd 62dc c13d 8212 803d 054c 93bc
000000e0: 736b fe3c 7de9 f0bc 89fa 47bc f69c 783c
000000f0: ed65 04bd ca6a cd3b 720a 12bd 9589 aabd
00000100: a1ff 353d ce9f 97bd 0383 c9bd 7500 943c
00000110: 67d6 963d 0a2b 073d b808 8bbd 9e59 6d3d
00000120: 25a8 f6bc 1d9e 61bc 076c 6b3d 2893 113d
00000130: ea27 0ebd 4c14 7b3d fbb3 cbbc 63f1 e3bc
00000140: 6d40 8e3d 3452 c3bc 0294 5ebb a86f c03d
00000150: 36c8 c53d f792 cb3c 2049 9b3d 5fc5 b0bc
00000160: 21d4 3fbd 9465 b13d 976f 4f3d 9a23 8d3d
00000170: 4d79 3fbd 1c40 4b3d 50ec a23d 7a97 063c
00000180: 0c4a 853d 0d4a b5bd 211f 143d 3396 bcbc
00000190: b05b d63d 9cf4 db3c cc53 b73d 4ae2 d8bc
000001a0: e05e 863c a4a8 7d3d 71c9 81bd 4d12 d8bc
000001b0: 7b3b b0bd 302c 8abd 05d6 513d 1dbb 1ebd
000001c0: 05fe 673d ba34 8d3c 6623 df3c 04c5 19bc
000001d0: fb55 d4bd c608 90bc 279f 3ebd 51c5 3abd
000001e0: a39e 933d 790a 8fbd 44f0 a1bd e0c0 d9bc
000001f0: a927 56bd 540c 033d 95cd 663d b866 043c
00000200: 2c2e 1a3c 49bb 243d 1ffc 503d 658c a8bb
00000210: da93 71bd 3db6 bbbd 7682 da3d e121 d23c
00000220: 33d7 a83d ed20 f5bc 6f88 a13c 4080 7abd
00000230: 457f 6ebd a273 59bd 49ae d83d cef5 993d
00000240: dae1 56bd cf9d 9ebd 822e 273d 2999 85bc
00000250: caa4 5abb 5fe6 8d3b 07e1 c1bd 7bf8 733c
00000260: ad3e 7c3b ea87 9dbd b325 b8bd f98f 2e3d
00000270: 9d6c a9bd 5699 18bd b75e 8a3d 21c8 6dbd
00000280: 05bd 1fbd d251 88bd be28 863d a07a bd3c
00000290: 7d1f f33a b214 eb3c 9f36 9d3c 3835 e9bc
000002a0: e385 1abc c536 8ebd c24c 26bd 3455 cebb
000002b0: c2bc 9ebc 22ef 913c f076 203d cf2e 843d
000002c0: 0fa0 cb3d 61d6 21ba d645 3f3d ab0e b1bd
000002d0: 7daf 833d 9edb 0cbd bb07 b1bd e219 8dbd
000002e0: ef23 9abd 7a3a 1bbd 19a7 583d a059 a1bd
000002f0: 3ab6 96bc b79b d6bc 8e2e f43c b34b 0dbd
00000300: 345c 683d 88f6 6cbd b35c 4c3d 8fd6 d8bd
00000310: c6f6 98bd 11e3 2e3d bcfd b13b 589c 9b3d
00000320: 384a 873d 7684 d0bd 7e7b 793d e1ec 2fbc
00000330: 4134 8dbb be35 55bd f30b 4dbb 4101 a1bd
00000340: 09d2 07bb 24ad b03d 358a 05bc aa75 813d
00000350: 4b61 80bd 6422 5a3d 51ba 06bb 4819 39bd
00000360: 26bf ac3d 9247 9a3b 8873 913c c992 a5bc
00000370: cccf a3bc 92ad c43d 1c4b e1bc 6ec0 963d
00000380: 0693 b33c dc77 9e3d b62c a8bd a509 cabd
00000390: f2af a2bc ebd7 28bd 8213 a03d 42bb ac3d
000003a0: c5b6 b9bc 38de 74bd c88a 5c3c 1bb5 c73c
000003b0: 82d8 9b3c 93c5 fc3c 4a9d 763d d94b 33bb
000003c0: b606 833d 4bbe 3b3c da5f 2c3c f111 a43d
000003d0: bc10 903c 36a7 cfbb 4d05 c6bb 5781 943d
000003e0: 135f 33bd 643c 813d 5403 273d d33d 5cbc
000003f0: cfe5 19bc 1f50 da3c 05cc b0bd 5d99 3cbd

bias f4 [100]
-0.006587595 -0.0462861 -0.057607718 0.041441903 0.0527205 -0.04632938 -0.054370668 0.093797185
0.06116624 -0.1063328 -0.06793774 -0.013776879 -0.031325225 -0.0044893166 -0.03984198 -0.101557426
-0.07580142 0.06380115 0.028266583 0.104685724 0.06080284 0.00020884596 0.05019357 -0.019931633
0.04097592 -0.065904856 -0.04430877 -0.0033191454 0.009702141 0.04724185 0.09523202 0.07207113
-0.07795028 -0.0009484627 0.00012297116 0.04500392 -0.069465466 0.054064337 0.020533137 0.07329731
-0.035351712 0.0021594283 0.06596403 0.102578096 -0.03858406 0.06203929 -0.04610006 0.032556314
-0.029061945 0.02971743 -0.08479255 0.044283483 -0.07928864 -0.053443354 -0.049723253 -0.022422314
0.07775094 0.06964316 0.04206239 -0.047600735 0.08527459 0.08138905 -0.00085372024 -0.057285428
0.07491502 0.10412344 0.04465019 -0.108926855 -0.061372355 0.07796101 -0.0990958 0.031856447
0.046311695 -0.03292399 -0.079803675 -0.09770062 0.07370127 0.04965754 0.045010015 -0.050537154
-0.030496053 0.041001268 -0.08263654 0.057442985 -0.01570173 0.04730268 -0.043754622 -0.05028958
-0.05948286 0.04608597 -0.034773897 -0.044496447 -0.1006083 0.06926182 0.09554842 -0.06606459
-0.016690386 -0.0286505 -0.049395386 -0.06958582
00000000: c1dc d7bb 7e96 3dbd 12f6 6bbd fcbe 293d
00000010: 73f1 573d e0c3 3dbd c7b3 5ebd bd18 c03d
00000020: 7489 7a3d 03c5 d9bd f122 8bbd 6bb8 61bc
00000030: e14e 00bd 1e1b 93bb 5831 23bd 57fd cfbd
00000040: c63d 9bbd 2daa 823d 528f e73c 7865 d63d
00000050: 660c 793d a9fd 5a39 c697 4d3d aa47 a3bc
00000060: 5ed6 273d 20f9 86bd 1d7d 35bd 0586 59bb
00000070: bbf5 1e3c ac80 413d 0109 c33d 079a 933d
00000080: 65a4 9fbd 41a2 78ba d2f1 0039 0856 383d
00000090: e943 8ebd 9172 5d3d 1c35 a83c e61c 963d
000000a0: f5cc 10bd 3285 0d3b 2618 873d 7714 d23d
000000b0: 520a 1ebd e91c 7e3d 6bd3 3cbd c559 053d
000000c0: 5113 eebc f871 f33c b7a7 adbd 9962 353d
000000d0: 1562 a2bd 6be7 5abd 9caa 4bbd 00af b7bc
000000e0: e33b 9f3d 13a1 8e3d 9d49 2c3d fdf8 42bd
000000f0: 72a4 ae3d 4daf a63d 32cc 5fba 20a4 6abd
00000100: 0c6d 993d ac3e d53d 1ee3 363d 0b15 dfbd
00000110: 9461 7bbd 06aa 9f3d bdf2 cabd e87b 023d
00000120: 55b1 3d3d 4edb 06bd 1c70 a3bd 4317 c8bd
00000130: b1f0 963d b465 4b3d 6c5c 383d 0c00 4fbd
00000140: dcd2 f9bc f2f0 273d 593d a9bd 5649 6b3d
00000150: eaa0 80bc 74c0 413d 0c38 33bd 72fc 4dbd
00000160: 4da4 73bd a4c4 3c3d 136f 0ebd e841 36bd
00000170: b90b cebd 24d9 8d3d e4ae c33d df4c 87bd
00000180: 47ba 88bc 74b4 eabc d152 4abd 0383 8ebd

weight f4 [100, 100]
-0.01528876 0.04393474 -0.068508595 0.10017556 -0.017522616 -0.0708263 -0.05939916 0.09612106
-0.018131947 0.05827848 0.01169465 0.08372152 -0.07122607 0.029111011 0.04465384 -0.030433446
-0.06147861 -0.016420454 -0.011805802 -0.055265006 -0.07843492 0.035614446 0.00994414 -0.062419485
-0.02532757 -0.008408037 0.043292694 0.040740684 0.084343664 0.0075779315 0.02748897 -0.07154441
0.04429089 -0.039935123 0.070042774 0.028293315 -0.006982253 -0.032725535 0.0451961 0.043018956
0.024737604 0.018070102 -0.07482786 -0.054001994 -0.10035448 -0.0367804 -0.043522414 -0.021959243
0.069711395 0.021551274 0.046248693 0.03948742 0.08268082 0.08073096 0.02231872 0.082057856
-0.08553196 0.05111448 0.0637702 -0.09128635 -0.08631223 -0.018134972 0.04455285 0.08565534
-0.092146195 0.08786541 -0.0052696746 -0.025047144 -0.02280718 0.06746257 0.048390683 0.011214844
-0.08043834 -0.00963683 -0.08210897 -0.10033156 0.036323193 -0.022590645 -0.0922044 -0.08419991
0.09249739 0.09470801 -0.07189212 -0.051864207 0.057145182 -0.023132076 -0.0057316558 -0.027115066
0.045468908 -0.0895289 -0.091998234 0.03561137 0.046901032 0.057541225 -0.027030077 -0.045811854
-0.050197925 -0.051033717 -0.08377268 0.039801653 -0.052955404 -0.10530615 0.0059654494 0.08846056
-0.013643686 -0.089996085 0.043058433 -0.0633899 0.05253179 -0.058338422 0.09912085 -0.014351557
0.10027698 0.037011772 0.083012454 0.008339959 -0.06707414 0.019856572 0.071178965 -0.076213524
0.036875147 0.024125293 0.056816332 -0.0773774 -0.06284519 0.017076025 -0.037537094 -0.024308315
0.012654058 0.068651095 -0.083630726 0.004502864 -0.03157461 -0.002766714 -0.05271886 0.10362402
0.06446599 0.030976618 -0.037453502 0.07071336 -0.06433585 -0.07923395 -0.056664556 -0.038738318
-0.076751985 0.053321235 0.0042790626 -0.046640906 -0.077012196 0.076737985 0.1010943 -0.06910351
0.09152108 0.0006463074 -0.026922336 0.027168212 -0.0675928 -0.099622965 -0.017764935 0.07473032
0.062201276 0.07479755 0.060559608 0.0343603 0.004320454 -0.06912286 0.09041306 0.072094634
-0.07538164 -0.08412082 -0.014348418 -0.053688675 -0.025086021 0.07630151 -0.029146422 0.07968263
0.0009787484 0.017605811 0.005504018 -0.03884915 -0.026207736 -0.036789723 -0.080767386 -0.0023826766
0.011582955 0.012755408 0.03281119 -0.027095582 -0.10390147 0.056980453 0.009007558 -0.103241764
0.08399482 -0.014616376 -0.07173555 -0.0700759 -0.034880895 -0.06823854 0.027515281 -0.042368222
-0.06506297 0.07497373 -0.04445459 0.0082576815 -0.06820484 -0.0230595 -0.07377044 -0.06634572
-0.076367 -0.024988778 0.03437006 0.054634176 0.068619765 -0.059231643 -0.06237188 -0.026170507
0.080426335 0.014297285 0.0806824 0.08756406 0.07802832 0.0023157406 0.0044783303 -0.07619786
0.02717447 0.023643654 -0.07385756 -0.0577514 -0.061380945 -0.010342932 -0.029484643 0.050609086
-0.037945308 0.10382492 -0.05885645 0.07172107 0.09938515 0.10126358 -0.059525948 -0.040838495
-0.053538132 -0.054573856 -0.014012295 -0.040098585 0.025177823 0.07409218 0.047880862 -0.010456046
-0.04633251 -0.040579498 0.09588683 -0.09677756 -0.0010944399 -0.08415609 -0.02417267 -0.08453404
00000000: b57d 7abc eaf4 333d 3c4e 8cbd d828 cd3d
00000010: 978b 8fbc 610d 91bd 894c 73bd 1edb c43d
00000020: 7389 94bc 6ab5 6e3d eb9a 3f3c 3076 ab3d
00000030: f9de 91bd 377a ee3c f2e6 363d 904f f9bc
00000040: ffd0 7bbd 3084 86bc 1f6d 41bc 8f5d 62bd
00000050: 7da2 a0bd 74e0 113d bfec 223c 93ab 7fbd
00000060: c47b cfbc ddc1 09bc ae53 313d b4df 263d
00000070: 5fbc ac3d 4c50 f83b 8c30 e13c e085 92bd
00000080: 5d6a 353d 0393 23bd 9672 8f3d 62c7 e73c
00000090: 62cb e4bb 360b 06bd 8c1f 393d a534 303d
000000a0: 84a6 ca3c c007 943c 593f 99bd 3231 5dbd
000000b0: a686 cdbd 0ba7 16bd 8f44 32bd dfe3 b3bc
000000c0: d9c4 8e3d 4c8c b03c 456f 3d3d 90bd 213d
000000d0: 9054 a93d 4656 a53d c0d5 b63c f30d a83d
000000e0: 612b afbd 6b5d 513d f399 823d 56f4 babd
000000f0: 77c4 b0bd cb8f 94bc 0d7d 363d 116c af3d
00000100: 25b7 bcbd c8f2 b33d 3cad acbb ab2f cdbc
00000110: 20d6 babc d129 8a3d 4f35 463d 77be 373c
00000120: dbbc a4bd cbe3 1dbc bf28 a8bd a27a cdbd
00000130: a1c7 143d 0410 b9bc a9d5 bcbd 0171 acbd
00000140: 466f bd3d 46f6 c13d 2d3c 93bd 906f 54bd
00000150: 1111 6a3d 7b7f bdbc 9dd0 bbbb 6a20 debc
00000160: 9b3d 3a3d ee5a b7bd 9269 bcbd 3add 113d
00000170: 4c1b 403d 59b0 6b3d 2e6e ddbc 36a5 3bbd
00000180: 579c 4dbd bb08 51bd 0391 abbd 0f07 233d
00000190: c4e7 58bd c0aa d7bd d179 c33b cf2a b53d
000001a0: c489 5fbc de4f b8bd 0a5e 303d 90d2 81bd
000001b0: 932b 573d 45f4 6ebd dfff ca3d cb22 6bbc
000001c0: 045e cd3d a899 173d 6f02 aa3d 53a4 083c
000001d0: 2b5e 89bd 40aa a23c 47c6 913d d615 9cbd
000001e0: 650a 173d 68a2 c53c 3eb8 683d 0b78 9ebd
000001f0: fbb4 80bd 05e3 8b3c 7fc0 19bd 3b22 c7bc
00000200: f752 4f3c f298 8c3d 9646 abbd c38c 933b
00000210: 6154 01bd c251 35bb bbef 57bd d538 d43d
00000220: bf06 843d adc2 fd3c d868 19bd 2bd2 903d
00000230: 84c2 83bd 6945 a2bd 1819 68bd 12ac 1ebd
00000240: 2530 9dbd 5e67 5a3d 6137 8c3b 890a 3fbd
00000250: 92b8 9dbd ce28 9d3d 870a cf3d 2486 8dbd
00000260: 676f bb3d f56c 293a 3b8c dcbc df8f de3c
00000270: 186e 8abd 2007 ccbd c587 91bc 360c 993d
00000280: c4c6 7e3d 752f 993d 5a0d 783d 63bd 0c3d
00000290: 9892 8d3b 4990 8dbd 7b2a b93d 5aa6 933d
000002a0: b061 9abd 8947 acbd a115 6bbc a8e8 5bbd
000002b0: 3381 cdbc f743 9c3d 7ac4 eebc a630 a33d
000002c0: 5949 803a 103a 903c 0d5b b43b 4920 1fbd
000002d0: 9bb1 d6bc d2b0 16bd 5f69 a5bd ae26 1cbb
000002e0: 6fc6 3d3c 0ffc 503c 0765 063d 8ef7 ddbc
000002f0: 4bca d4bd 5664 693d 7094 133c 6b70 d3bd
00000300: 7a05 ac3d 8679 6fbc 17ea 92bd f483 8fbd
00000310: 45df 0ebd a6c0 8bbd ba67 e13c 4d8a 2dbd
00000320: bc3f 85bd d48b 993d 0416 36bd 3a4b 073c
00000330: fbae 8bbd 47e7 bcbc f514 97bd 44e0 87bd
00000340: 4d66 9cbd 44b5 ccbc 9fc7 0c3d 16c8 5f3d
00000350: 8588 8c3d e19c 72bd a879 7fbd 8863 d6bc
00000360: 90b6 a43d 293f 6a3c d03c a53d c954 b33d
00000370: 50cd 9f3d aec3 173b f5be 923b a00d 9cbd
00000380: fe9c de3c 56b0 c13c a242 97bd bb8c 6cbd
00000390: 966a 7bbd 6775 29bc c789 f1bc 794b 4f3d
000003a0: 8a6c 1bbd 29a2 d43d 7613 71bd 7fe2 923d
000003b0: 718a cb3d 4863 cf3d 7bd1 73bd 4446 27bd
000003c0: cd4a 5bbd d688 5fbd d393 65bc 6a3e 24bd
000003d0: b941 ce3c a4bd 973d b91e 443d d64f 2bbc
000003e0: 28c7 3dbd b036 26bd 5060 c43d 5033 c6bd
000003f0: 4f73 8fba 075a acbd c305 c6bc 2f20 adbd

weight f4 [100, 100]
0.015406259 -0.024882074 0.014821966 -0.080272146 -0.035845954 -0.034318022 0.04510079 0.08997317
-0.070764095 -0.009811431 -0.0063307015 0.017505769 0.021388322 0.006030555 -0.053931065 -0.06981633
0.09859058 -0.017229388 0.07338304 -0.092069134 -0.007570246 -0.059746258 0.036496412 -0.06460531
0.07404741 0.024493791 -0.07432792 0.06971526 0.002828617 0.096285164 -0.007951828 0.024793858
0.014537315 0.10191684 -0.024911275 0.05321531 -0.020097746 -0.064920075 0.06610926 -0.06743693
-0.069138415 -0.07816779 0.08916261 0.055524718 -0.013907921 -0.06372098 0.06063399 0.062696084
-0.009562553 -0.07285154 0.009189737 -0.0016917911 0.06321028 0.08101837 0.032585993 -0.023333687
0.024394613 0.0127876 -0.06287394 0.0959131 0.059434112 0.035201386 0.02418647 -0.06512977
-0.09342106 0.07846798 -0.054276984 0.002186078 0.07960299 -0.097999625 0.02570661 0.035698652
0.053180955 -0.07016877 -0.08416054 -0.033658776 -0.023871614 -0.10073679 -0.037030935 -0.036839943
-0.0113067655 0.06842672 -0.07110067 -0.050437495 -0.099873096 0.03525516 -0.10908421 -0.07963388
0.0020968383 -0.09019125 0.021611148 -0.065119006 0.050029416 0.07376015 0.03568671 0.0428418
-0.06981385 -0.065723605 0.093353756 0.00044581795 0.06769932 -0.07175985 0.04114222 -0.009836647
0.05534087 -0.06358493 0.029949212 -0.05655274 0.020629227 -0.09668578 0.03445946 0.104472846
0.045399066 -0.038862485 -0.024612026 -0.07108924 0.07718861 -0.022045383 0.036887173 -0.099446826
0.030376412 0.022204638 -0.05549305 0.053354733 0.056338683 -0.06175374 0.010353485 -0.082305394
0.037319444 -0.07704416 0.018938886 0.060712025 0.06944576 -0.0015187387 0.055445045 0.05295764
0.08261945 0.10872871 0.09807911 -0.05079085 -0.0009980632 -0.1040697 0.03816374 0.04647486
0.057124417 0.013616725 -0.07251017 -0.039605875 0.015263629 0.106700666 -0.028593617 -0.0027113066
0.056715593 -0.01733103 0.008861469 -0.026202843 -0.10082616 0.053066734 -0.023405898 0.07719831
0.021294404 -0.037879612 0.016971942 -0.054423686 0.041155484 0.07568927 -0.017420478 -0.10583011
-0.055496022 -0.02736599 0.07016628 -0.015401901 0.05440803 -0.014445087 -0.0015237741 0.061761063
-0.0729975 -0.030482104 0.08451023 0.024762306 -0.05730595 0.079575025 0.026558368 -0.090610795
0.029790739 -0.06908105 -0.007189002 -0.040159717 -0.08482673 -0.057347577 -0.0018557598 0.06730578
0.06938821 -0.023961553 -0.10224065 -0.0075589344 0.034315646 -0.013206873 0.08960178 -0.065808564
-0.110791564 0.008101701 -0.030480735 0.001409025 -0.009661966 0.0264871 0.043263737 0.063063025
-0.019074481 -0.035332013 -0.09235912 0.023541728 -0.01787995 0.08278876 0.039111033 0.051424414
0.06762463 0.0017719935 -0.05589209 0.09153664 -0.046384662 0.090778306 -0.084751815 -0.07466078
0.061162025 0.03955487 0.045563716 -0.045650568 -0.050931595 0.039374545 -0.009276508 -0.10060736
-0.09149703 -0.028519705 -0.03039329 -0.08330028 -0.018966336 -0.019469324 0.016922532 -0.047006045
-0.04885009 -0.0019586787 0.079584196 -0.045127913 0.075705566 0.09871925 -0.052193098 -0.013076738
-0.0881763 0.01048022 -0.010050379 -0.081370324 0.06832443 -0.051147353 -0.06448377 0.026956672
00000000: 896a 7c3c 7ed5 cbbc d5d7 723c b965 a4bd
00000010: 35d3 12bd 0e91 0cbd 9bbb 383d da43 b83d
00000020: c4ec 90bd 20c0 20bc c671 cfbb 4268 8f3c
00000030: 9036 af3c f69b c53b d2e6 5cbd ddfb 8ebd
00000040: dce9 c93d a524 8dbc d949 963d be8e bcbd
00000050: d30f f8bb 7eb8 74bd 437d 153d ca4f 84bd
00000060: 2ba6 973d 34a7 c83c 3d39 98bd e0c6 8e3d
00000070: 5260 393b 2831 c53d 6248 02bc 7d1c cb3c
00000080: eb2d 6e3c c7b9 d03d bb12 ccbc 4cf8 593d
00000090: 07a4 a4bc d1f4 84bd 4b64 873d 601c 8abd
000000a0: 7198 8dbd 6f16 a0bd e39a b63d e36d 633d
000000b0: 0cde 63bc 2580 82bd 595b 783d ce66 803d
000000c0: 41ac 1cbc 3033 95bd 8d90 163c 17bf ddba
000000d0: 6474 813d f6ec a53d e478 053d 4a26 bfbc
000000e0: 36d7 c73c 1583 513c 0dc4 80bd 166e c43d
000000f0: 2f71 733d 542f 103d b422 c63c c262 85bd
00000100: 8a53 bfbd d2b3 a03d 8b51 5ebd 4e44 0f3b
00000110: e406 a33d 07b4 c8bd ab96 d23c c038 123d
00000120: 46d4 593d a5b4 8fbd 5c5c acbd c9dd 09bd
00000130: 678e c3bc 174f cebd c0ad 17bd 7be5 16bd
00000140: 0340 39bc 4f23 8c3d 3a9d 91bd 8c97 4ebd
00000150: 448a ccbd b767 103d 8b67 dfbd 1617 a3bd
00000160: 1c6b 093b 31b6 b8bd dd09 b13c 1d5d 85bd
00000170: a5eb 4c3d 900f 973d 3a2c 123d e27a 2f3d
00000180: 90fa 8ebd 199a 86bd 4130 bf3d acbc e939
00000190: f1a5 8a3d d4f6 92bd bf84 283d e329 21bc
000001a0: 1cad 623d d138 82bd 0d58 f53c d9a3 67bd
000001b0: a0fe a83c 3203 c6bd 5d25 0d3d dcf5 d53d
000001c0: 5ff4 393d 452e 1fbd 299f c9bc 3c97 91bd
000001d0: 1015 9e3d 8598 b4bc 0117 173d c7aa cbbd
000001e0: f4d7 f83c 80e6 b53c ae4c 63bd 7e8a 5a3d
000001f0: 64c3 663d 7df1 7cbd aaa1 293c bb8f a8bd
00000200: 46dc 183d 54c9 9dbd b925 9b3c 2cad 783d
00000210: 9439 8e3d 6a10 c7ba 581a 633d 1cea 583d
00000220: 6334 a93d 28ad de3d b3dd c83d 110a 50bd
00000230: 72d1 82ba 7f22 d5bd 9551 1c3d 6c5c 3e3d
00000240: 4bfb 693d af18 5f3c 3680 94bd c539 22bd
00000250: 4d14 7a3c e185 da3d 293d eabc 2db0 31bb
00000260: 9c4e 683d cef9 8dbc b22f 113c 58a7 d6bc
00000270: f27d cebd 815c 593d babd bfbc 261a 9e3d
00000280: 9a71 ae3c a727 1bbd be08 8b3c 5feb 5ebd
00000290: a792 283d fa02 9b3d 64b5 8ebc 75bd d8bd
000002a0: cc4f 63bd a42e e0bc 57b3 8f3d 4158 7cbc
000002b0: f4da 5e3d 16ab 6cbc 60b9 c7ba 2bf9 7c3d
000002c0: b77f 95bd 9bb5 f9bc b313 ad3d 52da ca3c
000002d0: a5b9 6abd 3bf8 a23d ef90 d93c 2792 b9bd
000002e0: b50b f43c 5e7a 8dbd b891 ebbb 847e 24bd
000002f0: a3b9 adbd 4be5 6abd f73c f3ba 9dd7 893d
00000300: 681b 8e3d 054b c4bc 8c63 d1bd f0b0 f7bb
00000310: 908e 0c3d a461 58bc 2381 b73d a4c6 86bd
00000320: b0e6 e2bd ffbc 043c bcb2 f9bc 09af b83a
00000330: 394d 1ebc 7afb d83c 5135 313d 3027 813d
00000340: 1642 9cbc 4db8 10bd c726 bdbd 95da c03c
00000350: f978 92bc 278d a93d e432 203d 68a2 523d
00000360: c87e 8a3d 3c42 e83a 1bef 64bd 9077 bb3d
00000370: d8fd 3dbd fae9 b93d 5c92 adbd c0e7 98bd
00000380: 0885 7a3d 4a04 223d 05a1 3a3d 17fc 3abd
00000390: a69d 50bd 3447 213d 7ffc 17bc 3b0b cebd
000003a0: cb62 bbbd 28a2 e9bc 59fb f8bc 5699 aabd
000003b0: 4a5f 9bbc 227e 9fbc 1fa1 8a3c 6989 40bd
000003c0: 0817 48bd 2d5d 00bb 0afd a23d 0cd8 38bd
000003d0: 850b 9b3d 512d ca3d 6ec8 55bd d13f 56bc
000003e0: c795 b4bd 3bb5 2b3c 58aa 24bc 7ca5 a6bd
000003f0: aeed 8b3d e37f 51bd 1110 84bd 3dd4 dc3c

bias f4 [100]
0.011515526 0.01972914 -0.07942868 -0.031414285 0.014883212 -0.004392704 -0.049056325 0.02156545
-0.054257978 -0.0016613383 0.06435622 -0.048126586 -0.10197517 0.0014817129 0.025864687 -0.039227176
0.067899235 -0.0886001 0.10138132 -0.04199939 -0.029506156 -0.09401806 0.02043233 -0.049290575
-0.0426675 0.046105273 0.009077946 -0.010197097 0.03828476 0.012780252 -0.01858031 -0.09989742
-0.0066839866 0.019679781 -0.0687116 0.012125468 0.06395437 -0.044651568 0.0642287 0.048242174
-0.05848511 -0.024191288 -0.109444246 -0.08066283 0.10171353 -0.036484957 -0.023545125 0.01658445
-0.0676281 -0.064911224 0.052883483 -0.087470695 0.0023396476 -0.08131064 -0.06189436 0.0017402271
0.075423166 0.028252052 0.11467536 0.09284325 0.09999218 -0.017363355 0.014710831 -0.049704857
-0.016894195 -0.020519704 -0.007317056 0.061303705 0.031813703 -0.036180604 0.025763918 0.05520288
0.03972754 0.07137977 -0.072127216 0.07644851 -0.065587796 0.05676582 -0.081154115 0.030592885
0.038723055 0.021335501 0.04294689 -0.093259685 -0.028893048 0.11095599 -0.008014548 -0.009598437
-0.0031844915 -0.03794166 -0.09084818 0.094409816 0.07220165 -0.004239456 -0.04772851 0.04763738
0.032900967 -0.09528277 -0.0047297906 0.018251764
00000000: 9eab 3c3c 019f a13c 81ab a2bd 44ac 00bd
00000010: b7d8 733c acf0 8fbb 49ef 48bd 07aa b03c
00000020: 9d3d 5ebd 43c1 d9ba 32cd 833d 6220 45bd
00000030: 5cd8 d0bd 0936 c23a 2ee2 d33c adac 20bd
00000040: c10e 8b3d f873 b5bd 02a1 cf3d 8d07 2cbd
00000050: e5b6 f1bc 8a8c c0bd b461 a73c eae4 49bd
00000060: 1ec4 2ebd e2d8 3c3d aabb 143c ba11 27bc
00000070: 7bd0 1c3d 4364 513c bc35 98bc 0597 ccbd
00000080: 5805 dbbb 7e37 a13c abb8 8cbd e6a9 463c
00000090: 82fa 823d 90e4 36bd 568a 833d 9699 453d
000000a0: 158e 6fbd cf2c c6bc 4e24 e0bd 8e32 a5bd
000000b0: 2f4f d03d 4071 15bd b5e1 c0bc 1ddc 873c
000000c0: 9a80 8abd 2df0 84bd 5a9c 583d d623 b3bd
000000d0: c654 193b 3186 a6bd f184 7dbd 5518 e43a
000000e0: 7677 9a3d d970 e73c eada ea3d 9a24 be3d
000000f0: b3c8 cc3d 983d 8ebc b305 713c 5297 4bbd
00000100: b265 8abc f018 a8bc eac3 efbb 9819 7b3d
00000110: 164f 023d 1d32 14bd da0e d33c 6a1c 623d
00000120: 58b9 223d 8f2f 923d 6fb7 93bd 0991 9c3d
00000130: e552 86bd 4783 683d 2134 a6bd ee9d fa3c
00000140: 119c 1e3d cac7 ae3c 14e9 2f3d effe bebd
00000150: 1db1 ecbc e53c e33d 734f 03bc c342 1dbc
00000160: e7b2 50bb b768 1bbd 9c0e babd ef59 c13d
00000170: 75de 933d 22eb 8abb f87e 43bd 6a1f 433d
00000180: 2ac3 063d 9d23 c3bd 5cfc 9abb b984 953c

weight f4 [100, 60]
0.11755586 0.10187585 -0.08532797 0.030191932 -0.078061365 0.10504842 0.07962093 -0.079574965
0.114177175 0.07207368 0.121521726 -0.10485006 0.09818793 0.04015159 -0.10146705 -0.018925317
-0.09858473 0.047443952 0.026205119 0.17197865 0.0910091 0.17513162 0.1966491 -0.0072516617
0.14260355 0.10066939 -0.1028132 0.05987195 -0.015741264 -0.08948556 0.05895797 -0.117063
-0.0016797166 -0.026167693 0.09040982 -0.07963991 0.14855058 -0.025378417 0.009941572 0.101014964
0.06708047 0.06462121 0.009342662 -0.039159667 0.028464189 -0.009283153 -0.06357079 0.108944476
0.057948474 -0.044286985 -0.106811725 0.024111766 -0.0103584565 -0.11590443 0.0843335 -0.003748503
-0.10167456 0.05851225 -0.022783037 0.01865967 0.12019064 -0.12099571 -0.011465624 0.10411834
-0.008254148 -0.027633576 0.019266175 -0.12280004 0.091193035 -0.122750804 -0.06971158 0.0369633
-0.06338266 0.05247252 -0.0422694 0.07256176 0.11661324 -0.028272018 -0.04987962 0.08660476
0.18921395 0.08056898 0.054893278 0.16945675 0.04218618 -0.106624216 -0.019102292 0.08375208
-0.08058904 0.12357622 0.022886284 -0.014128975 -0.06185238 0.058657363 0.017618762 0.15573253
0.02194922 -0.010769384 0.10485603 0.036779597 -0.035196908 0.025328651 -0.08041481 -0.08503157
-0.054105304 0.05328453 -0.10573156 -0.015750716 0.10445846 0.0055745626 -0.09083793 -0.057568025
0.0604502 0.078415744 -0.067197084 0.07472963 0.058052186 -0.0006484176 0.06909276 0.047091305
-0.041047085 0.06518333 0.12693389 -0.10463309 -0.116421655 0.1135965 0.043598298 0.016832307
0.10744802 -0.015050216 0.062556475 0.060660757 0.12284585 -0.046262488 0.053346362 -0.042572
-0.08154868 0.11382201 0.017231075 0.09523571 -0.014507641 0.17015173 0.08512627 -0.066342525
-0.08135829 0.034279186 -0.031455673 -0.1110495 -0.065806076 0.041707844 -0.034599468 0.087712005
0.033899672 -0.12632379 0.064223945 0.04056201 0.04693334 0.15614384 -0.043124843 0.07346382
0.07816842 -0.010409341 0.067871295 -0.11098304 0.026318608 -0.022170905 0.048343223 -0.10927712
0.05855012 0.09004055 -0.12162229 -0.109968625 -0.056257986 -0.07862563 0.02150794 -0.03691179
0.086509004 -0.0033172495 -0.14005595 0.060644746 -0.027744109 -0.0024690793 -0.10315439 0.039784007
-0.12255324 0.072478145 0.02654058 -0.034879003 -0.032500185 -0.053723317 0.045586146 0.05051848
0.06685176 -0.04564478 0.053153303 0.010554527 0.029934825 0.1045322 0.06921963 0.067032665
0.14655119 0.08921805 0.18575123 -0.043514546 -0.07609888 0.13445882 0.12649445 -0.008422252
0.1014406 -0.018186597 -0.088728905 -0.06684154 -0.006331723 0.06362195 0.052996565 0.09039537
0.12066733 0.1358069 0.09505125 -0.053041976 -0.02084001 -0.108055025 0.019792385 -0.11145844
-0.054356493 -0.07673471 -0.060679454 -0.06090621 0.05953602 -0.03678919 -0.06234152 0.091273814
-0.019941475 0.011027931 -0.05462483 -0.043675337 -0.017884973 0.0103434315 0.007927957 -0.063086666
0.08646418 -0.08082137 0.10462716 0.096058555 -0.069467306 0.05977775 -0.08532472 0.013440636
0.08465225 -0.10548397 0.029086217 -0.05106364 -0.10740227 -0.037326224 0.1270092 -0.10344607
00000000: 20c1 f03d 49a4 d03d 6ec0 aebd 1255 f73c
00000010: a3de 9fbd a023 d73d 4c10 a33d 33f8 a2bd
00000020: b9d5 e93d 5e9b 933d 62e0 f83d a1bb d6bd
00000030: c116 c93d fe75 243d f5cd cfbd 4409 9bbc
00000040: cae6 c9bd 9754 423d 1eac d63c 2c1b 303e
00000050: fb62 ba3d b455 333e 625e 493e 599f edbb
00000060: aa06 123e c12b ce3d ba8f d2bd 4a3c 753d
00000070: d3f3 80bc 3544 b7bd ea7d 713d babe efbd
00000080: f029 dcba a15d d6bc c928 b93d 401a a3bd
00000090: a51d 183e 66e6 cfbc fae1 223c efe0 ce3d
000000a0: 7c61 893d 2058 843d f711 193c e365 20bd
000000b0: bb2d e93c 5e18 18bc 6731 82bd 481e df3d
000000c0: 615b 6d3d 4566 35bd 1bc0 dabd 0a86 c53c
000000d0: 84b6 29bc 4d5f edbd 0bb7 ac3d 72a9 75bb
000000e0: c03a d0bd 8baa 6f3d 7ea3 babc 2adc 983c
000000f0: 8326 f63d 99cc f7bd 50da 3bbc ff3b d53d
00000100: 683c 07bc cf5f e2bc 19d4 9d3c 967e fbbd
00000110: 6ac3 ba3d c664 fbbd f2c4 8ebd d466 173d
00000120: c5ce 81bd 6ded 563d ae22 2dbd 439b 943d
00000130: ecd2 ee3d b89a e7bc 934e 4cbd d65d b13d
00000140: 4dc1 413e 5901 a53d c6d7 603d 1286 2d3e
00000150: 6acb 2c3d cc5d dabd 697c 9cbc 3686 ab3d
00000160: de0b a5bd 8715 fd3d 047c bb3c 377d 67bc
00000170: ec58 7dbd b442 703d 3955 903c 5978 1f3e
00000180: dace b33c 1272 30bc c2be d63d 34a6 163d
00000190: a22a 10bd 087e cf3c 85b0 a4bd 0825 aebd
000001a0: 869d 5dbd e140 5a3d ca89 d8bd a507 81bc
000001b0: 51ee d53d d2aa b63b 3d09 babd 73cc 6bbd
000001c0: a19a 773d 6f98 a03d a09e 89bd d90b 993d
000001d0: 21c8 6d3d 92fa 29ba 8180 8d3d d0e2 403d
000001e0: fd20 28bd d67e 853d f5fa 013e e049 d6bd
000001f0: 7a6e eebd 48a5 e83d 2194 323d e8e3 893c
00000200: b50d dc3d 2e95 76bc 9c1d 803d 6a77 783d
00000210: 9b96 fb3d bc7d 3dbd b781 5a3d fa5f 2ebd
00000220: ff02 a7bd 841b e93d 2f28 8d3c f10a c33d
00000230: 75b1 6dbc 413c 2e3e af56 ae3d 97de 87bd
00000240: 2d9f a6bd 5568 0c3d aad7 00bd ec6d e3bd
00000250: 56c5 86bd d8d5 2a3d 2cb8 0dbd 5aa2 b33d
00000260: 62da 0a3d 065b 01be d887 833d 5a24 263d
00000270: 2d3d 403d 2ce4 1f3e ada3 30bd 3374 963d
00000280: c416 a03d f18b 2abc 1b00 8b3d 134b e3bd
00000290: 1f9a d73c c29f b5bc 8b03 463d afcc dfbd
000002a0: 40d2 6f3d 2e67 b83d 1b15 f9bd 3b37 e1bd
000002b0: c66e 66bd 7906 a1bd 6b31 b03c d130 17bd
000002c0: a22b b13d 3666 59bb d46a 0fbe a066 783d
000002d0: 9d47 e3bc 47d0 21bb 9c42 d3bd 8ef4 223d
000002e0: 31fd fabd 6c6f 943d a16b d93c 49dd 0ebd
000002f0: ea1e 05bd fb0c 5cbd 8ab8 3a3d 77ec 4e3d
00000300: 93e9 883d 05f6 3abd 47b7 593d e5ec 2c3c
00000310: e139 f53c fa14 d63d 05c3 8d3d 6c48 893d
00000320: 8411 163e f4b7 b63d 9235 3e3e 4f3c 32bd
00000330: bbd9 9bbd 93af 093e c387 013e 7cfd 09bc
00000340: 17c0 cf3d 0ffc 94bc 80b7 b5bd 38e4 88bd
00000350: 587a cfbb 3a4c 823d ed12 593d 3521 b93d
00000360: 6f20 f73d f710 0b3e 3baa c23d 8b42 59bd
00000370: abb8 aabc f44b ddbd a423 a23c 5344 e4bd
00000380: eaa4 5ebd 1627 9dbd 058b 78bd ca78 79bd
00000390: 0bdc 733d 43b0 16bd d259 7fbd c4ed ba3d
000003a0: 4e5c a3bc 7fae 343c 49be 5fbd e9e4 32bd
000003b0: 8283 92bc 7f77 293c 43e4 013c 9533 81bd
000003c0: 2214 b13d ad85 a5bd c446 d63d 59ba c43d
000003d0: e044 8ebd 84d9 743d babe aebd 1d36 5c3c
000003e0: 295e ad3d fb07 d8bd 3846 ee3c 1b28 51bd
000003f0: b9f5 dbbd 62e3 18bd b30e 023e 88db d3bd

bias f4 [100]
-0.06868182 -0.11287552 -0.0764395 -0.0006065067 -0.028005598 -0.07682103 0.062261067 -0.0073610097
-0.060269453 0.0833254 -0.04321053 -0.098881766 -0.09954877 0.119339354 0.040887896 -0.13377869
-0.035640717 -0.112200834 0.076968804 0.120729096 -0.051850427 -0.07342672 0.01912755 0.12036348
0.05917274 0.0209027 0.04104371 0.031936947 -0.0699853 -0.031305704 0.10519943 0.04462047
0.12824664 -0.07146828 0.0075800964 -0.12728576 0.049704332 0.02665678 0.04627875 -0.08539945
-0.11228146 -0.04781061 0.035316452 -0.11389422 -0.006337377 -0.018659243 0.024644762 0.012927251
-0.113738045 0.042409554 -0.09607444 -0.024335902 -0.011799929 0.10414936 -0.069782875 -0.1304524
-0.10896497 -0.06330213 -0.09052429 0.009675994 -0.11666659 -0.04257175 0.019386716 -0.03673003
-0.037888993 -0.0820534 0.0054026935 -0.07537913 -0.05877642 0.10826994 0.072377436 0.018350137
-0.014525541 0.06661685 -0.10663897 -0.12877835 0.068917565 0.010941336 -0.12672265 -0.11903463
0.03480135 -0.08601282 -0.0635121 0.020757431 -0.06787045 -0.102796175 -0.025741197 -0.027095377
-0.1146182 -0.049235564 0.0712225 0.121604264 -0.039972812 -0.04427714 -0.09907121 -0.020019494
0.06673873 0.06723638 0.025258292 -0.02579416
00000000: 0ea9 8cbd 482b e7bd 508c 9cbd fafd 1eba
00000010: ff6b e5bc 5854 9dbd 7605 7f3d a034 f1bb
00000020: 1add 76bd 82a6 aa3d 86fd 30bd 8682 cabd
00000030: 3ae0 cbbd 3168 f43d 117a 273d 48fd 08be
00000040: 00fc 11bd 8dc9 e5bd d2a1 9d3d d140 f73d
00000050: 1d61 54bd c060 96bd 61b1 9c3c 2181 f63d
00000060: 1d5f 723d 243c ab3c 731d 283d 51d0 023d
00000070: 7454 8fbd 693a 00bd cc72 d73d f4c3 363d
00000080: 1653 033e f65d 92bd 7562 f83b 3357 02be
00000090: c596 4b3d 525f da3c c98e 3d3d e8e5 aebd
000000a0: d2f3 e5bd 0fd5 43bd fca7 103d 5f41 e9bd
000000b0: c5a9 cfbb 45db 98bc d0e3 c93c d2cc 533c
000000c0: 7eef e8bd a4b5 2d3d adc2 c4bd 165c c7bc
000000d0: 7d54 41bc 424c d53d 53ea 8ebd 5095 05be
000000e0: 0729 dfbd 8ca4 81bd cd64 b9bd 0f88 1e3c
000000f0: e5ee eebd b75f 2ebd e4d0 9e3c 3a72 16bd
00000100: 7d31 1bbd 9d0b a8bd 1409 b13b 6060 9abd
00000110: 8bbf 70bd a1bc dd3d 9f3a 943d 0753 963c
00000120: 89fc 6dbc 6a6e 883d 8865 dabd 79de 03be
00000130: a724 8d3d 4a43 333c 95c3 01be 6ec8 f3bd
00000140: dc8b 0e3d 7d27 b0bd a212 82bd 7d0b aa3c
00000150: aaff 8abd cd86 d2bd 34df d2bc 20f7 ddbc
00000160: f2bc eabd 3bab 49bd 1add 913d a80b f93d
00000170: 88ba 23bd f25b 35bd d9e5 cabd ecff a3bc
00000180: 51ae 883d 3ab3 893d 7aea ce3c 464e d3bc
